cough.tflite (tflite, 132988 bytes, 7 tensors)

sequential/conv1d/BiasAdd/ReadVariableOp f4 [128]
0	0xbcafdc8d	-0.021467471
1	0x3e2280ab	0.15869395
2	0xbd08881d	-0.033332933
3	0x3e5c4f0a	0.21514526
4	0xbdde2687	-0.10847192
5	0x3ca00287	0.019532455
6	0x3c2bbc41	0.010481895
7	0x3e8bcb47	0.27303526
8	0xbdd1638e	-0.10224067
9	0xbccd2d07	-0.025045885
10	0xbd748695	-0.05969866
11	0x3de9fa83	0.114247344
12	0x3d73665a	0.059423782
13	0xbd2e57a3	-0.042564046
14	0xbdf6fcf8	-0.12059969
15	0xbbc44e52	-0.005990782
16	0x3e2f889e	0.17141959
17	0x3eb024f8	0.34403205
18	0xbd9b3825	-0.07579068
19	0x3dfd5ed7	0.12371605
20	0x3d334fe7	0.043777373
21	0x3e6b490d	0.22977085
22	0xbd65d28a	-0.05610899
23	0xbbc0ed18	-0.005887639
24	0x3e2fdea2	0.17174771
25	0x3d80a00e	0.06280528
26	0x3d1e7485	0.03868534
27	0x3cfa5c33	0.030561542
28	0x3a881597	0.0010382411
29	0x3e66f486	0.22554216
30	0x3e40941c	0.18806499
31	0x3c9bdc13	0.019025838
32	0x3d81db9d	0.06340716
33	0xbd9380ca	-0.07202299
34	0x3cce94ec	0.025217496
35	0x3d5a057d	0.05322789
36	0x3dfdf4fc	0.12400243
37	0xbd114ce4	-0.03547372
38	0x3e523782	0.20528987
39	0x3c4dd44b	0.012562822
40	0xbd14e2d7	-0.036349144
41	0x3e56c100	0.20972061
42	0xbd3b1344	-0.04567267
43	0x3cc210ea	0.023689706
44	0x3d6280e6	0.05529871
45	0x3eef34ef	0.46720073
46	0xbd5b8316	-0.05359181
47	0x3e0e112b	0.13873737
48	0xbbd68e2b	-0.0065477095
49	0x3ea98ddb	0.3311604
50	0x3d8d0af8	0.06886858
51	0xbdc6fa70	-0.09715736
52	0xbaf3c35c	-0.001859765
53	0x3e63d9df	0.2225108
54	0xbc70cca7	-0.01469723
55	0xbd8c324e	-0.06845532
56	0x3c0512f9	0.008122199
57	0xbcb59842	-0.022167329
58	0xbe0a99c4	-0.1353522
59	0x3e7337ef	0.23751806
60	0x3bdb4e74	0.006692702
61	0x3ef9580e	0.48699993
62	0x3e2df71c	0.16988796
63	0xbcf1515b	-0.029457739
64	0x3e5d01fa	0.21582785
65	0xbdd39227	-0.10330611
66	0xbdb9a48a	-0.090645865
67	0xbd3f520f	-0.046709117
68	0xbd943397	-0.072364025
69	0xbd88ff14	-0.06689277
70	0xbdce4d2b	-0.10073312
71	0xbc300f6b	-0.010745863
72	0x3d874031	0.066040404
73	0xbde65984	-0.112475425
74	0xbd6084bd	-0.05481409
75	0x3f001ef4	0.5004723
76	0x3c27a8d3	0.010233122
77	0x3adbf098	0.0016780077
78	0x3d1882e8	0.037234217
79	0xbd92e99f	-0.07173466
80	0x3dca686a	0.09883197
81	0x3c1d88eb	0.009615163
82	0x3e5c68f1	0.21524407
83	0xbd3cea88	-0.046122104
84	0xbe36352f	-0.17793725
85	0x3e08b3d1	0.13349845
86	0xbbaa7cf9	-0.005202886
87	0xbd36bc2f	-0.04461306
88	0x3e8c7583	0.27433404
89	0x3ebcd026	0.36877555
90	0x3b862bd3	0.0040945797
91	0xbdb71968	-0.08940393
92	0x3df64ba4	0.12026146
93	0xbda7e281	-0.08197499
94	0x3e992702	0.29912573
95	0xbe0ab53d	-0.135457
96	0xbd9a87b1	-0.07545412
97	0x3eacd4f9	0.33756235
98	0x3d81e7ea	0.06343062
99	0x3d09ab90	0.03361088
100	0xbddd8c26	-0.10817747
101	0x3e1c9c73	0.15294056
102	0xbd6a1802	-0.057151802
103	0xbc4b73b6	-0.012417724
104	0x3cfb0880	0.030643702
105	0x3cdd6c92	0.02702931
106	0xbd72493c	-0.059151873
107	0xbd8990a8	-0.06717044
108	0xbdddc041	-0.10827685
109	0x3e478960	0.19485998
110	0x3e0d67a1	0.13809063
111	0x3ebffd40	0.37497902
112	0x3d89d956	0.06730907
113	0xbc5d4d0f	-0.013507142
114	0x3d37c290	0.044863284
115	0xbd5fbd3c	-0.054623827
116	0x3dcc9aa6	0.09990434
117	0xbe145718	-0.14486349
118	0x3dc26431	0.09491766
119	0x3e96a039	0.29419115
120	0x3e7b6b87	0.24552737
121	0xbd927457	-0.07151096
122	0xbda59e8a	-0.080868796
123	0x3d6e6313	0.058199953
124	0x3d82cd93	0.063868664
125	0xbca07f43	-0.019591933
126	0xbda3428c	-0.07971677
127	0x3e526e7a	0.20549956

sequential/conv1d_1/BiasAdd/ReadVariableOp f4 [64]
0	0x3e139419	0.14411964
1	0xbce2a849	-0.027668135
2	0x3e0f77f8	0.14010608
3	0x3ed053a0	0.406888
4	0xbbb52981	-0.0055286293
5	0x3d0428ea	0.03226558
6	0xbd6a4651	-0.057195965
7	0x3ebbaf95	0.36657396
8	0x3dd70a2d	0.10499988
9	0x3caa8771	0.020816537
10	0xbd00ab05	-0.031413097
11	0x3d178778	0.036994427
12	0x3e600cfa	0.2187995
13	0xbba8f7f3	-0.005156511
14	0x3e37bf88	0.17944157
15	0xbd43ae88	-0.047773868
16	0x3ed5b1fe	0.4173736
17	0x3dec3f60	0.11535525
18	0x3d15cdf7	0.036573377
19	0xbbdbe675	-0.006710822
20	0xbdfa6a00	-0.12227249
21	0xbd88894a	-0.06666811
22	0x3df1ebf8	0.118125856
23	0xbba4dc22	-0.0050311247
24	0xbdd6c36d	-0.10486493
25	0x3d0fbdaf	0.035093006
26	0xbc7975a2	-0.0152258
27	0x3d84c10d	0.06482134
28	0xbd18bbf5	-0.037288625
29	0x3d00bc49	0.031429563
30	0x3e8ac261	0.27101424
31	0xbd150221	-0.036378983
32	0x3cc90394	0.024537839
33	0xbc92b67a	-0.017909277
34	0x3dfd0c15	0.1235582
35	0xbc6a5db0	-0.014304563
36	0x3df8065b	0.12110587
37	0x3e4f4ea9	0.2024485
38	0xbcafa0de	-0.021439012
39	0x3df8cc59	0.12148351
40	0x3defc7e7	0.1170805
41	0x3e567851	0.20944335
42	0xbd0deac1	-0.034647707
43	0xbcd7b755	-0.026332537
44	0xbc2497ac	-0.010045927
45	0xbbeede3b	-0.0072896755
46	0x3e32127d	0.17389865
47	0x3da8c14e	0.08239995
48	0x3c4ebf09	0.0126187885
49	0x3e72f339	0.23725595
50	0x3d2f6a02	0.042825706
51	0x3d03f7ba	0.032218672
52	0xbb949a67	-0.0045350078
53	0xbcbf7e67	-0.023375703
54	0x3d69b8a6	0.05706086
55	0xbc4b21ae	-0.012398167
56	0xbbd41e68	-0.0064733513
57	0xbd8b8c48	-0.06813866
58	0x3da41557	0.08011883
59	0x3e1279b4	0.14304239
60	0xbc05a6ea	-0.008157471
61	0xbceb033d	-0.028688068
62	0xbd44ceb1	-0.04804868
63	0xb762bd86	-1.3514777e-05

sequential/conv1d_2/BiasAdd/ReadVariableOp f4 [32]
0	0x3aaa9b28	0.0013016211
1	0xbc6d227c	-0.014473554
2	0x3bce985d	0.006304784
3	0x3ca2695e	0.019825634
4	0xbbd59422	-0.006517903
5	0x3c002b06	0.007822758
6	0x3b3f80d3	0.0029221072
7	0x3d132e55	0.035932858
8	0x3d2f13bb	0.042743426
9	0x3d2543a8	0.040347725
10	0x3d8aaf2d	0.067716934
11	0x3daa7d57	0.08324688
12	0xbd1ca47b	-0.0382428
13	0xbd41968e	-0.04726272
14	0x3e70d766	0.23519668
15	0xbb89a1f6	-0.0042002155
16	0x3c459f18	0.012061857
17	0x3a449a1a	0.00074997696
18	0xbc317780	-0.010831714
19	0x3e0f95b2	0.14021948
20	0x3d3f1e8f	0.046660002
21	0x3df59d4c	0.119928926
22	0x3dccecbd	0.10006092
23	0x3e015490	0.12629914
24	0x3d1876b4	0.03722258
25	0x3dadbc1a	0.08483143
26	0x3d7d3d22	0.06182588
27	0x3aed4e7a	0.0018105053
28	0xbc6c1e69	-0.014411547
29	0x3d5e187d	0.054222573
30	0xbad8a18a	-0.0016527635
31	0xbc65eafd	-0.014033076

sequential/conv1d/Conv1D f4 [128, 1, 3, 1]
0	0xbd181de6	-0.03713789
1	0xbdb73ed1	-0.08947528
2	0xbddcaa88	-0.10774714
3	0x3e10d320	0.14143038
4	0xbdb80d7e	-0.089869484
5	0xbd9de4cc	-0.07709655
6	0xbcfc6ea1	-0.03081447
7	0xbd6bec24	-0.057598248
8	0xbc817506	-0.015802871
9	0xbc79b54f	-0.015240981
10	0x3c9a60c4	0.01884497
11	0x3d1045d3	0.03522284
12	0xbd900948	-0.0703302
13	0x3d89af8f	0.06722938
14	0xbda44b43	-0.080221675
15	0xbd9a32f7	-0.07529252
16	0xbdacc9e3	-0.08436944
17	0xbde16d3d	-0.11007164
18	0xbd59aa7c	-0.053141102
19	0xbb8af19b	-0.0042402274
20	0xbdfe5525	-0.12418584
21	0xbdd60b8c	-0.10451421
22	0x3d508a1a	0.050912954
23	0x3e009eb8	0.12560546
24	0xbda9d7c8	-0.0829311
25	0xbd964800	-0.07337952
26	0x3e252b56	0.16129813
27	0x3d60f63b	0.054922324
28	0x3e1d2562	0.15346292
29	0xbc68d533	-0.014210987
30	0xbd9fe83b	-0.07807966
31	0xbdfdf286	-0.12399773
32	0x3d73df7b	0.0595393
33	0xbc2c712c	-0.010525029
34	0x3db8dfeb	0.09027084
35	0x3e3fafd6	0.1871942
36	0x3df2d7ca	0.11857565
37	0x3c6063f8	0.013695709
38	0x3df1ce0f	0.11806881
39	0x3e0aae25	0.13542993
40	0x3dc77592	0.09739222
41	0x3dd7b02a	0.105316475
42	0xb9fe3050	-0.0004848265
43	0x3e0bf7d6	0.1366876
44	0xbe0e480b	-0.1389467
45	0x3d728270	0.059206426
46	0xbdffda02	-0.124927536
47	0xbd5ad566	-0.05342617
48	0x3cfe275b	0.031024626
49	0xbdc2b337	-0.09506839
50	0x3e0a6956	0.13516745
51	0x3de32134	0.11090317
52	0xbd0ada4e	-0.033899598
53	0x3be4dd25	0.0069843703
54	0xbd9911c1	-0.074740894
55	0xbdaf0e35	-0.08547632
56	0xbd6e7154	-0.058213547
57	0x3d77e9fb	0.060525876
58	0xbdbfe4b1	-0.09369791
59	0x3cf4ea06	0.029896747
60	0x3def94f4	0.116983324
61	0xbcea5f26	-0.028609823
62	0xbdf525cd	-0.119701006
63	0x3dfa1ec6	0.12212901
64	0x3e2e5d8e	0.17027876
65	0x3d9524fb	0.07282444
66	0xbd73747b	-0.059437256
67	0xbdfcb5b5	-0.12339345
68	0xbda435b7	-0.08018058
69	0xbdb8748f	-0.09006607
70	0xbd8f5190	-0.06997979
71	0xbd11fd44	-0.035641924
72	0x3db85d1e	0.09002136
73	0x3e65229c	0.22376484
74	0xbd0f347a	-0.034962155
75	0x3d858876	0.065201685
76	0x3e5bcf8c	0.21465892
77	0x3df0eb37	0.11763614
78	0xbd8eec60	-0.06978679
79	0xbd62a1bb	-0.05533002
80	0xbdd42792	-0.1035911
81	0x3cb7eb66	0.022451114
82	0xbda3a470	-0.07990348
83	0x3d0a14d1	0.03371126
84	0x3dba511c	0.09097502
85	0x3dc6476b	0.09681591
86	0x3de719c3	0.112842105
87	0x3d8d5ae7	0.06902104
88	0xbce1ff65	-0.027587602
89	0x3a75caaa	0.00093762076
90	0x3d17640c	0.036960647
91	0x3d8b650c	0.068063825
92	0xbdc18bf1	-0.0945052
93	0x3c752333	0.014962005
94	0xbdf79d48	-0.12090546
95	0xbdf7b918	-0.12095851
96	0xbbaab48b	-0.0052095107
97	0xbdf84bb7	-0.121238165
98	0x3e0a085d	0.13479753
99	0x3d8cab23	0.06868579
100	0xbc7d3b32	-0.015456008
101	0xbe251f40	-0.16125202
102	0xbdbfca77	-0.09364789
103	0xbe0585b8	-0.13039291
104	0x3d5a73c0	0.053333044
105	0xbdddce65	-0.10830382
106	0x3c746b10	0.014918104
107	0xbdf7155a	-0.12064619
108	0x3b2d028b	0.002639922
109	0xbd62e917	-0.055398073
110	0xbceb6b06	-0.028737556
111	0xbdcd5985	-0.1002684
112	0x3dd06bfd	0.10176847
113	0xbe15c013	-0.14624052
114	0x3cd023b4	0.02540765
115	0x3dadd6aa	0.084882095
116	0xbdc5ad9b	-0.09652253
117	0xbdc2a654	-0.09504381
118	0x3d49d545	0.049275655
119	0x3d0c10f2	0.034195848
120	0xbbdda8ff	-0.0067645307
121	0xbe0c0d4f	-0.13676952
122	0xbdd15add	-0.10222409
123	0x3c6545f7	0.013993732
124	0x3ce1c8dd	0.0275616
125	0xbce71912	-0.028210197
126	0x3daf3bc6	0.08556323
127	0x3e8b3c59	0.2719448
128	0xbb81fb45	-0.0039667212
129	0x3db5b6db	0.088727675
130	0xbd70472a	-0.058661617
131	0xbdc77332	-0.09738769
132	0x3d7afbed	0.06127541
133	0x3d3b9d1e	0.045804136
134	0x3d90c817	0.07069414
135	0x3c3abd09	0.011397609
136	0x3d762fbc	0.060104117
137	0xbc1ad87f	-0.009451031
138	0xbdd9fb9e	-0.10643695
139	0xbdc56d06	-0.09639935
140	0x3d397c50	0.04528457
141	0x3d1a9942	0.037743814
142	0x3e1b6f3b	0.1517915
143	0x3d96413a	0.0733666
144	0xbd3d2bbb	-0.046184283
145	0xbdd07dc2	-0.101802364
146	0x3ab66d33	0.0013918042
147	0xbde3c618	-0.11121768
148	0x3d83a013	0.06427016
149	0x3dcce4dd	0.1000459
150	0xbc129dee	-0.008948786
151	0xbdd78ac0	-0.10524511
152	0xbd9a0eae	-0.07522331
153	0x3dcc571c	0.09977552
154	0xbbd79ecf	-0.0065802108
155	0xbd76606d	-0.060150553
156	0xbd884260	-0.06653285
157	0xbe09367b	-0.13399689
158	0xbdac037d	-0.08399103
159	0x3dca3e21	0.098751314
160	0x3e1c34dc	0.15254539
161	0x3e0db566	0.1383873
162	0xbd2f4ace	-0.04279595
163	0xbc25e0ea	-0.0101244245
164	0x3d1e2ea5	0.038618702
165	0xbdc496e6	-0.09599094
166	0x3ce837ab	0.028346857
167	0xbc41d08a	-0.011829505
168	0x3dc5ebdd	0.09664128
169	0x3d013f68	0.03155461
170	0xbe151a12	-0.14560726
171	0xbdd3576b	-0.10319408
172	0xbbb2c049	-0.005455051
173	0xbdbe67e3	-0.092971586
174	0x3b3dd429	0.0028965569
175	0xbdcc4737	-0.09974521
176	0x3d53f85e	0.051750533
177	0x3d85a808	0.0652619
178	0x3e173e0b	0.14769761
179	0xbdf34360	-0.11878085
180	0x3dd9efa7	0.10641413
181	0xbdc0227a	-0.09381576
182	0xbd7d47d6	-0.061836086
183	0x3dd79605	0.10526661
184	0xbdc9aab6	-0.09847014
185	0x3e0674ac	0.13130444
186	0x3dd9b9e9	0.10631163
187	0x3e14a108	0.14514554
188	0x3d602f6f	0.054732736
189	0x3d1bd854	0.038048103
190	0xbba78652	-0.005112448
191	0xbd990207	-0.0747109
192	0x3d80ea24	0.06294659
193	0xbd764649	-0.060125623
194	0xbd27ef99	-0.040999983
195	0xbb6a3e04	-0.003574253
196	0xbe247e10	-0.16063714
197	0xbdfe9258	-0.124302566
198	0x3de53dec	0.11193451
199	0x3e0aad8a	0.13542762
200	0xbdd569f4	-0.104205996
201	0xbc22e3ee	-0.009942038
202	0xbde0734b	-0.109594904
203	0xbd9e5513	-0.0773107
204	0x3d9cc534	0.07654801
205	0xbbbfe3e5	-0.0058560246
206	0xbe02fa72	-0.1279085
207	0xbdef8dcf	-0.1169697
208	0xbdea0680	-0.11427021
209	0x3d961cf1	0.07329739
210	0xbd37a929	-0.044839058
211	0x3dc40c86	0.09572701
212	0xbdd87af5	-0.10570327
213	0xbdd38ddd	-0.10329793
214	0xbc2f83ee	-0.010712607
215	0x3d3d76bc	0.046255812
216	0xbd2386a0	-0.03992331
217	0xbc9d09f3	-0.019169783
218	0x3dc93808	0.0982514
219	0x3cae827a	0.02130245
220	0xbd38c79c	-0.045112237
221	0xbde1ea83	-0.11031058
222	0xbe00f0e1	-0.12591888
223	0x3d26484d	0.040596295
224	0xbd6aff75	-0.05737253
225	0x3d815f80	0.06317043
226	0x3df83f7a	0.12121482
227	0xbda648db	-0.08119365
228	0x3cec09c8	0.028813258
229	0xbcc6be80	-0.02426076
230	0xbdb8ac18	-0.09017199
231	0x3d3817bb	0.044944506
232	0x3ac8c90c	0.0015318706
233	0x3de5fe67	0.11230164
234	0x3d5044af	0.05084675
235	0xbcd997a9	-0.026561575
236	0x3dabb8e8	0.083848774
237	0x3c164ae3	0.009173128
238	0x3db596b9	0.08866639
239	0x3e390e0d	0.18071766
240	0x3dbd4b24	0.092428476
241	0x3ddbf1a6	0.1073945
242	0x3de293bb	0.110633336
243	0xbd9d80e5	-0.076906
244	0x3d638bc2	0.055553205
245	0x3e0f3bad	0.13987608
246	0x3d60afd8	0.054855198
247	0x3e5f3ee4	0.21801335
248	0x3dfd2848	0.12361199
249	0xbd9aa2a8	-0.075505555
250	0x3c563726	0.013074672
251	0xbc3d04f0	-0.011536822
252	0xbd96b365	-0.073584355
253	0xbd0c88d9	-0.034310196
254	0x3d2044de	0.039128177
255	0x3dad1b2e	0.0845245

sequential/conv1d_1/Conv1D f4 [64, 1, 3, 128]
0	0xbd30b9a8	-0.043145806
1	0xbd715f12	-0.058928557
2	0xbd010364	-0.031497374
3	0x3dcd1ca2	0.10015227
4	0x3c93c97e	0.018040415
5	0xbcf0c371	-0.029390069
6	0x3d7d131e	0.06178581
7	0xbd001f60	-0.03127992
8	0x3b84809c	0.0040436517
9	0x3e0feceb	0.14055221
10	0xbdbd5647	-0.09244972
11	0x3d0f72e2	0.03502167
12	0xbcf49b9f	-0.029859362
13	0xbda3461e	-0.07972358
14	0xbd7aabaa	-0.061198868
15	0x3d905b1c	0.07048628
16	0xbbcee871	-0.0063143303
17	0x3d8008a0	0.06251645
18	0xbda9e323	-0.08295276
19	0x3d6aea48	0.057352334
20	0xbdd2d02d	-0.10293613
21	0x3db88709	0.09010131
22	0xbbe27d85	-0.0069119358
23	0xbca44a84	-0.020055063
24	0xbd551bb8	-0.052028388
25	0xbd2de3d5	-0.042453606
26	0x3dbe3ca4	0.0928891
27	0x3dcb559b	0.09928437
28	0xbd411639	-0.047140334
29	0xbdba130c	-0.09085664
30	0x3d6438ec	0.055718347
31	0xbe07853d	-0.1323442
32	0x3d7c0f70	0.06153816
33	0xbc478c8f	-0.012179508
34	0x3a1dddf3	0.0006022148
35	0x3d32b9b3	0.043634128
36	0xbdaa71df	-0.083225004
37	0x3c4d40ba	0.012527639
38	0x3d1fa84e	0.038978867
39	0xbda6a0f9	-0.08136172
40	0x3c70d303	0.014698747
41	0xbb7c474e	-0.003849465
42	0x3d278bb9	0.040904734
43	0xbd9f3ad1	-0.0777489
44	0xbd25ec8d	-0.040508796
45	0x3d6405f6	0.055669747
46	0x3daa5776	0.08317463
47	0x3cd042cf	0.025422482
48	0xbdb4b24d	-0.08823071
49	0x3dc7db0b	0.09758576
50	0xbd2eb775	-0.042655427
51	0x3d581361	0.052752856
52	0xbd3e4501	-0.046452526
53	0xbcd7f1ae	-0.026360359
54	0x3cf1f843	0.029537326
55	0x3ce50b5e	0.027959522
56	0x3d2786a3	0.040899884
57	0x3dbe0b1c	0.09279463
58	0xbd9e1ff9	-0.07720942
59	0xbd5bb9fc	-0.053644165
60	0xbdc6625c	-0.09686729
61	0x3ccdab80	0.025106192
62	0xbd611c84	-0.054958835
63	0xbdaa502a	-0.08316071
64	0x3cd21179	0.025643097
65	0x3d250566	0.04028835
66	0xbdc1a475	-0.09455196
67	0xbc9670c0	-0.01836431
68	0xbdca497c	-0.09877297
69	0xbd7a7fce	-0.06115704
70	0xbd5e6f31	-0.05430526
71	0x3da2db32	0.079519644
72	0x3ca35823	0.019939488
73	0x3c94363d	0.01809227
74	0x3cc9b002	0.02462006
75	0xbd56c08a	-0.052429713
76	0xbdf259e0	-0.118335485
77	0xbc745e79	-0.014915102
78	0xbd93e9b0	-0.07222307
79	0x3b1680ea	0.0022965022
80	0x3db3e924	0.087847024
81	0xbd867d12	-0.06566824
82	0x3d727b51	0.059199635
83	0x3d6111ea	0.054948725
84	0x3ccb18e3	0.02479214
85	0x3d068589	0.032842193
86	0xbd8d690a	-0.069048
87	0x3bb9ef92	0.005674311
88	0x3d0c65e0	0.034276843
89	0x3e108927	0.1411482
90	0xbd802633	-0.06257286
91	0xbdd4269c	-0.10358927
92	0xbd8e4237	-0.06946223
93	0x3cc455e2	0.023966733
94	0x3d80dacb	0.062917314
95	0xbdccd490	-0.100014806
96	0x3bfa102e	0.0076313233
97	0x3db60a37	0.08888667
98	0x3d85ea15	0.06538788
99	0x3d8192cc	0.063268274
100	0xbd9311d3	-0.07181134
101	0x3caf2723	0.021380967
102	0xbdc92935	-0.09822313
103	0xbdaa6efc	-0.0832195
104	0xbce0b373	-0.027429318
105	0x3d554173	0.05206437
106	0xbd39ee6a	-0.045393385
107	0xbc6933e9	-0.014233568
108	0xbc157f63	-0.00912461
109	0xbccb0ec7	-0.02478732
110	0x3d8445f9	0.06458659
111	0xbb950840	-0.0045481026
112	0xbda16c56	-0.078819916
113	0x3dde1eeb	0.10845741
114	0xbd383ead	-0.044981647
115	0xbdf06dfd	-0.117397286
116	0xbc63e5d3	-0.013909775
117	0x3d238df3	0.039930295
118	0x3b9cddd3	0.0047871857
119	0x3da7a50e	0.081857786
120	0xbda3503f	-0.0797429
121	0x3d1b4912	0.037911482
122	0xb8db079b	-0.000104441504
123	0x3d9a609c	0.07537958
124	0xbd9f637b	-0.07782646
125	0x3c95436a	0.018220622
126	0x3d99fa88	0.07518488
127	0xbd933a59	-0.07188863
128	0xbdb03e38	-0.08605617
129	0x3de72714	0.112867504
130	0xbd8f62c8	-0.07001263
131	0xbcd62dfe	-0.026144978
132	0xbc1b3244	-0.0094724335
133	0x3dc644e9	0.09681112
134	0x3ce7d178	0.028298125
135	0x3cee6476	0.029100638
136	0x3d6bf839	0.05760977
137	0xbe0dc381	-0.1384411
138	0xbd96b1e9	-0.073581524
139	0xbccb7e01	-0.024840357
140	0x3df3947f	0.11893558
141	0xbddb6c8a	-0.107140616
142	0xbcf87b4a	-0.030332226
143	0x3d0e1cc9	0.03469542
144	0x3c2270ed	0.009914619
145	0xbd67eaef	-0.056620535
146	0xbb9e3424	-0.004827993
147	0xbd48f40d	-0.04906087
148	0xbdbb5fe0	-0.09149146
149	0x3d499ea6	0.049223565
150	0xbd2b7325	-0.041857857
151	0xbdaed970	-0.08537567
152	0x3cbf7d66	0.023375224
153	0x3c14f736	0.009092143
154	0xbd83fe22	-0.06444956
155	0x3d74d292	0.059771128
156	0x3daa8638	0.083263814
157	0x3bb03afd	0.0053781257
158	0x3d8d34af	0.06894814
159	0xbdbc6228	-0.09198409
160	0x3dc635e7	0.0967825
161	0xbc95877c	-0.01825308
162	0xbd9156a2	-0.07096602
163	0xbbc8d74c	-0.006129181
164	0x3d7de29f	0.0619837
165	0x3dc7e633	0.09760704
166	0x3deb1af3	0.114797495
167	0x3d1bcba4	0.038036004
168	0x3c8d7907	0.017269624
169	0x3d4108a9	0.0471274
170	0xbd1a6b80	-0.037700176
171	0xbd9ce489	-0.07660777
172	0x3c609ed0	0.013709739
173	0x3dc2290b	0.094804846
174	0xbda8914e	-0.0823084
175	0x3d3360f5	0.043793637
176	0xbdbcacd7	-0.09212654
177	0xbd6395b6	-0.055562697
178	0xbdb43ed3	-0.08801045
179	0xbd5d9a54	-0.054102257
180	0xbda018c7	-0.07817226
181	0xbd3b2e9b	-0.045698743
182	0xbd8fe308	-0.07025725
183	0xbd5ff0a7	-0.054672863
184	0xbcba8899	-0.022770213
185	0x3c8dc97f	0.017307995
186	0x3dd591a2	0.10428168
187	0x3dd205f4	0.10255042
188	0x3ce53b94	0.02798251
189	0x3d30ee27	0.04319587
190	0xbcf3a96c	-0.029743873
191	0x3d07df41	0.033171896
192	0xbb7024fa	-0.0036643133
193	0xbd0caafc	-0.03434275
194	0xbd5ff853	-0.05468018
195	0xbd6fa9e7	-0.05851164
196	0xbd1fa845	-0.038978834
197	0xbc3facaa	-0.011698881
198	0xbc727abf	-0.014799773
199	0xbdc0707b	-0.09396454
200	0x3cdfeaac	0.02733358
201	0xbcc61a7f	-0.024182556
202	0x399ccdc9	0.0002990796
203	0xbd97b904	-0.07408336
204	0x3db82001	0.08990479
205	0x3d963516	0.07334344
206	0xbc28c720	-0.010301381
207	0xbd69b373	-0.0570559
208	0x3dba3c99	0.09093589
209	0xbd923b4b	-0.071402155
210	0x3dab24af	0.08356606
211	0xbc5e0875	-0.013551821
212	0x3cdad272	0.026711676
213	0x3c0fe4e1	0.008782596
214	0x3dc19ac4	0.09453347
215	0xbcd2a7b0	-0.025714725
216	0xbd238f77	-0.03993174
217	0x3d9f3a32	0.07774772
218	0xbb9387de	-0.0045022806
219	0xbca87220	-0.020562232
220	0xbd3f458c	-0.046697184
221	0xbd86f02e	-0.065887794
222	0xbc68f1f4	-0.014217842
223	0x3cd0b74d	0.02547803
224	0xbd502c31	-0.050823394
225	0xbdcb390a	-0.09922989
226	0xbc7c2c57	-0.015391431
227	0xbcd321f9	-0.025773035
228	0x3dc6a9e5	0.097003736
229	0x3d60b135	0.054856498
230	0x3d3f13bd	0.046649683
231	0x3d4aa923	0.049477708
232	0x3cced97b	0.025250187
233	0xbd25dc02	-0.04049302
234	0x3d7b4622	0.06134618
235	0xbd651594	-0.05592878
236	0xbda22315	-0.079168476
237	0x3ccd8012	0.025085483
238	0xbd2ebc98	-0.042660326
239	0x3dba4296	0.090947315
240	0x3d1da440	0.03848672
241	0xbd0407bf	-0.03223395
242	0x3d6076ce	0.0548008
243	0xbd0165f3	-0.031591367
244	0x3d34fd77	0.044187035
245	0x3d54fb6f	0.0519976
246	0xbd9d0961	-0.076678045
247	0x3d95029e	0.0727589
248	0xbb929d07	-0.0044742855
249	0xbd7a26ac	-0.061072037
250	0xbce0e823	-0.027454441
251	0x3d184d41	0.03718305
252	0xbcc1e2e4	-0.02366776
253	0x3d6873d6	0.056751095
254	0x3d35508c	0.04426627
255	0xbd99ed8e	-0.07516013

sequential/conv1d_2/Conv1D f4 [32, 1, 3, 64]
0	0xbe0ce5a8	-0.13759482
1	0x3d91f278	0.07126325
2	0xbd6ed98d	-0.05831294
3	0x3e6798a8	0.22616827
4	0xbdb009f0	-0.085956454
5	0xbdcef435	-0.101051725
6	0x3d1dc7d3	0.038520645
7	0xbe130782	-0.14358333
8	0x3c6d136a	0.014469961
9	0xbd2ca64e	-0.042150788
10	0xbd8446d2	-0.064588204
11	0x3d52761b	0.051382165
12	0x3de15c44	0.110039264
13	0xbddce911	-0.107866414
14	0x3e16ca01	0.14725496
15	0x3deeb4c5	0.11655573
16	0x3ea20f64	0.31652367
17	0x3de286e2	0.11060883
18	0xbe010be6	-0.12602195
19	0xbe1b4465	-0.15162809
20	0x3d679886	0.056541942
21	0x3d37f8bc	0.044914946
22	0xbdace293	-0.08441653
23	0xbcc2d483	-0.023782974
24	0xbccbc25c	-0.024872951
25	0xbe224f48	-0.15850556
26	0xbdf1292d	-0.11775432
27	0x3da49956	0.08037059
28	0xbde163f0	-0.1100539
29	0x3d062310	0.032748282
30	0x3e8ab186	0.27088565
31	0x3e116786	0.14199647
32	0x3dc25b58	0.09490079
33	0xbc881912	-0.016613517
34	0xbdbfde1b	-0.09368535
35	0x3da20166	0.07910423
36	0x3db05eb0	0.0861181
37	0x3d302035	0.042999465
38	0x3bdc523f	0.0067236717
39	0xbc97cda1	-0.018530669
40	0xbb1da76f	-0.0024056097
41	0x3c866aa5	0.016408274
42	0x3bb41199	0.005495262
43	0xbcbd48bc	-0.023105972
44	0xbd9540e4	-0.072877675
45	0xbd974c22	-0.07387568
46	0x3db25904	0.08708385
47	0x3e205213	0.15656309
48	0x3d1feae4	0.03904237
49	0x3e05a0a8	0.13049567
50	0xbe1d5ce3	-0.15367465
51	0xbe0d6244	-0.13807017
52	0x3dc41dcb	0.09575995
53	0xbdaafdfe	-0.083492264
54	0x3d0320ce	0.032013707
55	0xba8ef0a8	-0.0010905461
56	0xbe11f1e4	-0.1425243
57	0x3c068c38	0.008212142
58	0xbe125f0f	-0.14294074
59	0x3d51bc8d	0.051205207
60	0x3df01060	0.11721873
61	0xbdbdf57d	-0.09275339
62	0xbe0990c5	-0.13434131
63	0x3df25634	0.11832848
64	0xbc056f19	-0.0081441635
65	0xbe166b72	-0.14689425
66	0x3db34ed1	0.087552674
67	0x3db39eb5	0.08770505
68	0x3dbaa6b1	0.09113825
69	0x3de4aaf0	0.11165416
70	0x3d847a6f	0.06468665
71	0x3d6949d3	0.05695517
72	0x3d9fb7a0	0.077986956
73	0xbd6e2f90	-0.058150828
74	0x3d5d5a23	0.05404104
75	0x3e043491	0.12910677
76	0xbdfa086a	-0.12208636
77	0x3c380333	0.0112312315
78	0x3d2971f5	0.041368444
79	0xbde42d87	-0.11141496
80	0x3de0e347	0.1098085
81	0xbdd8519f	-0.10562443
82	0xbdb9f479	-0.090798326
83	0xbb9dfdcb	-0.0048215142
84	0x3defe444	0.1171346
85	0x3c7d5b50	0.015463665
86	0xbc5b2b68	-0.013377048
87	0x3db94e82	0.09048177
88	0x3dd1d1cd	0.102450944
89	0xbdd45451	-0.103676446
90	0x3b9bc3be	0.004753559
91	0xbdb1f567	-0.08689385
92	0xbe1a7723	-0.1508451
93	0x3d40d42c	0.047077343
94	0xbbf34078	-0.0074234568
95	0xbdbc5373	-0.09195604
96	0xbd49a749	-0.0492318
97	0x3d6242ae	0.055239372
98	0xbac4c3ef	-0.0015012006
99	0xbbac97b4	-0.005267108
100	0xbdbd67c9	-0.09248311
101	0xbc849801	-0.016185762
102	0xbdfc59fe	-0.12321852
103	0xbde0d081	-0.10977269
104	0xba10e33c	-0.00055270246
105	0x3d6ddde8	0.058072954
106	0xbd734bd1	-0.059398476
107	0xbdd7bf97	-0.1053459
108	0x38f95800	0.000118896365
109	0x3da7e4e1	0.08197952
110	0x3d82bd55	0.063837685
111	0x3da35b66	0.07976417
112	0x3de39809	0.11112983
113	0x3c3fcb08	0.011706121
114	0xbd88359c	-0.0665085
115	0x3d7f5a9b	0.062342267
116	0x3dd51e88	0.10406214
117	0x3d91a46a	0.071114376
118	0x3dfe1d90	0.12407982
119	0x3d7ed023	0.062210213
120	0xbd243202	-0.040086754
121	0xbb79281d	-0.0038018294
122	0xbdaf0dde	-0.08547567
123	0x3dde5122	0.108553186
124	0x3dc2591d	0.09489653
125	0xbe058bf3	-0.13041668
126	0x3c5176ce	0.012784673
127	0xbd328652	-0.04358513
128	0x3d252155	0.04031499
129	0xbc06eae9	-0.008234718
130	0xbdfd6c41	-0.123741634
131	0x3e623c45	0.22093304
132	0x3c80e635	0.015734771
133	0x3e05324d	0.1300747
134	0x3e03b00a	0.12860122
135	0xbb39c60e	-0.002834681
136	0x3e148864	0.14505154
137	0xbdcd61d2	-0.10028423
138	0xbd9d6ded	-0.07686982
139	0xbcc29317	-0.023751779
140	0x3d411e39	0.047147963
141	0xbe025c15	-0.12730439
142	0x3d1a8326	0.03772273
143	0x3decf2ef	0.115697734
144	0x3c5ad2e9	0.013355949
145	0xbdb9cc52	-0.09072174
146	0x3da2c626	0.0794795
147	0xbdcc2cd5	-0.099694885
148	0xbde72847	-0.11286979
149	0x3dc4fbc8	0.09618336
150	0x3d7125f6	0.058874093
151	0xbdc2c31a	-0.09509869
152	0x3cea6aae	0.028615322
153	0xbdbf0236	-0.093265936
154	0x3d817970	0.063219905
155	0x3cd285d1	0.025698574
156	0x3d7a4f7f	0.06111097
157	0xbc1c0abb	-0.009524043
158	0x3da7d93a	0.081957296
159	0x3cc0123b	0.023446193
160	0x3e09ca29	0.13456024
161	0xbceceaec	-0.028920613
162	0x3acbe768	0.0015556635
163	0x3df9b0dd	0.12191937
164	0x3e1e7685	0.15474899
165	0x3dbf52c2	0.09341957
166	0x3e076263	0.13221125
167	0x3d80ce3c	0.06289336
168	0x3d4430c8	0.047898084
169	0x3ca0e79d	0.019641692
170	0xbde8ecc4	-0.113732845
171	0x3d218a25	0.039438386
172	0x3c14eb53	0.009089309
173	0xbbba37f7	-0.005682941
174	0xbca24ab2	-0.019811008
175	0xbddb4aad	-0.10707603
176	0x3cc9dbb4	0.024640895
177	0xbd9d5dc9	-0.07683904
178	0x3d8f56e1	0.06998993
179	0xbbd3c4ae	-0.006462655
180	0xbbae8480	-0.005325854
181	0xbd739ab7	-0.05947372
182	0xbe6422e4	-0.22278935
183	0xbd8fd85c	-0.07023689
184	0x3e0ac7f0	0.13552833
185	0x3c5230bb	0.012829001
186	0x3dedced2	0.116117135
187	0xbe10457c	-0.14089006
188	0xbccb6dda	-0.024832655
189	0x3dcf8fa7	0.101348214
190	0xbdc29146	-0.09500365
191	0xbce03797	-0.027370257
192	0xbd5fb528	-0.054616123
193	0x3dcc091c	0.09962675
194	0xbd8f854f	-0.070078485
195	0xbe4c32c5	-0.19941242
196	0x3c149270	0.009068117
197	0x3d61d136	0.05513116
198	0x3d37e82b	0.044899147
199	0x3e09b37a	0.13447371
200	0x3dcc0dfe	0.09963606
201	0x3d0f7d68	0.035031706
202	0xbdd2f18b	-0.10299977
203	0xbd91a9ce	-0.07112466
204	0x3c988ad9	0.018620895
205	0x3d8f49f3	0.069965266
206	0xbe7c5c4a	-0.2464458
207	0x3e18fad9	0.14939441
208	0x3d7b1aeb	0.061304968
209	0xbddc39de	-0.10753225
210	0x3db0477f	0.08607387
211	0x3d2f0e34	0.042738155
212	0x3d0b3f35	0.033995826
213	0x3dd4941f	0.10379814
214	0x3d600cec	0.054699823
215	0xbe049732	-0.12948301
216	0x3e046619	0.12929572
217	0x3def32e3	0.11679628
218	0xbd72fa6e	-0.05932086
219	0x3dde54f8	0.1085605
220	0x3e038840	0.12844944
221	0xbd4d9776	-0.050193273
222	0xbd5d549a	-0.05403576
223	0x3b80df31	0.0039328565
224	0xbdd93279	-0.1060533
225	0xbd228a13	-0.03968246
226	0xbe04b519	-0.12959708
227	0xbdccc1fa	-0.099979356
228	0x3d636919	0.05552015
229	0x3d2e3e7f	0.04254007
230	0x3cbc9da0	0.02302438
231	0xbd29dfd7	-0.041473236
232	0x3d9f06b7	0.07764953
233	0x3df52b16	0.119711086
234	0x3d559282	0.052141674
235	0x3d8e92f2	0.06961621
236	0x3d8b88a7	0.06813174
237	0x3caa5edf	0.020797191
238	0xbd18123e	-0.037126772
239	0xbd111209	-0.03541759
240	0xbdb68493	-0.08912005
241	0x3c76cbe5	0.015063261
242	0xbd8559f7	-0.065113
243	0xbe12d507	-0.14339076
244	0xbdd7124e	-0.10501538
245	0x3dbc6556	0.09199016
246	0x3cbff60b	0.023432752
247	0x3d2b617d	0.04184102
248	0x3d6dc39a	0.05804787
249	0xbdfdae5e	-0.123867735
250	0x3e2480f8	0.16064823
251	0xbd57c29b	-0.052675825
252	0x3cb3f1c9	0.021965878
253	0x3ce98d7e	0.028509852
254	0xbe3ef24b	-0.18647115
255	0x3e044cc6	0.12919912

sequential/dense/MatMul f4 [1, 256]
0	0xbd9cda6d	-0.07658849
1	0x3ada5978	0.0016658744
2	0x3df6b2af	0.120458
3	0x3e88d00e	0.26721233
4	0x3dd2b320	0.10288072
5	0x3dc74c16	0.09731309
6	0xbd58144f	-0.052753743
7	0x3e081144	0.13287836
8	0xbeaaa906	-0.3333208
9	0xbd3ef6c4	-0.046622053
10	0x3cd057fa	0.025432575
11	0xbe7e6be6	-0.24845847
12	0x3df62597	0.120188884
13	0xbc9e75ac	-0.01934322
14	0x3dd1ad90	0.102381825
15	0xbe2de1a1	-0.16980602
16	0x3e825ce8	0.25461507
17	0x3cac50ef	0.021034686
18	0x3d820c60	0.063500166
19	0xbea3599c	-0.31904304
20	0xbe5e796d	-0.21726008
21	0xbea2a527	-0.31766626
22	0x3d33b56b	0.043874186
23	0xbdc9f062	-0.098603025
24	0x3eaa65ec	0.33280885
25	0x3e58ccdc	0.21171898
26	0xbe57f002	-0.2108765
27	0xbbacfe6e	-0.005279354
28	0x3c0a72c3	0.008450213
29	0xbc3493d4	-0.011021573
30	0x3cf91120	0.030403674
31	0xbd89b8bb	-0.06724688
32	0xbb873e4d	-0.0041273
33	0xbe097de2	-0.13426927
34	0x3e15c64f	0.1462643
35	0x3ea47ea6	0.32127875
36	0x3cd03651	0.025416525
37	0xbe3e0642	-0.18557075
38	0x3c7b0dbb	0.015323098
39	0xb9b978a5	-0.00035375837
40	0xbcb8d6d6	-0.02256338
41	0x3dd261e3	0.10272577
42	0xbd46d71c	-0.048544988
43	0xbd9daf38	-0.07699436
44	0xbdd2de80	-0.10296345
45	0x3e14b180	0.14520836
46	0x3d694899	0.056954
47	0x3dc64565	0.09681205
48	0xbd168587	-0.036748435
49	0xbe04adb1	-0.12956883
50	0x3d13c70e	0.036078505
51	0x3d2284ba	0.03967736
52	0xbd9febd2	-0.07808651
53	0x3dab06c7	0.08350902
54	0x3d7b8a7c	0.061411366
55	0xbd74002e	-0.059570484
56	0x3e9128b8	0.28351378
57	0x3d2294af	0.039692577
58	0x3e29f9c4	0.16599184
59	0x3b8d56fe	0.004313349
60	0xbddec977	-0.1087827
61	0x3e0f4c5e	0.13993976
62	0x3d557392	0.05211217
63	0xbe076233	-0.13221054
64	0x3d9713b3	0.07376804
65	0xbe014701	-0.12624742
66	0xbc390d0f	-0.011294617
67	0x3dac2ada	0.08406611
68	0x3a817f3c	0.0009879838
69	0x3be07829	0.0068502617
70	0xbccaff4d	-0.02477994
71	0xbdab8929	-0.083757706
72	0xbd9073c1	-0.07053328
73	0x3df439ce	0.11925088
74	0x3dd92841	0.10603381
75	0x3d9969b9	0.07490868
76	0x3ce95fa5	0.02848799
77	0x3db997c9	0.09062154
78	0x3d2d79e8	0.042352587
79	0x3dccafd1	0.09994472
80	0xbdb06c67	-0.08614426
81	0xbe058d21	-0.13042118
82	0x3deff075	0.117157854
83	0x3e06ba87	0.13157092
84	0x3e2dfb1a	0.16990319
85	0x3e92dd69	0.28684548
86	0x3c598140	0.0132754445
87	0xbcbb3c45	-0.022855887
88	0x3e9a4f7a	0.3013876
89	0x3dbf0fd2	0.09329189
90	0x3dc8bed1	0.0980202
91	0x3bd84a3b	0.006600646
92	0x3d85cfe0	0.0653379
93	0xbe0318f6	-0.1280249
94	0x3d1c61b4	0.038179114
95	0x3c935d1c	0.017988734
96	0xbd9d872c	-0.076917976
97	0x3dcd4cde	0.10024427
98	0x3da2ac98	0.07943076
99	0x3dac07db	0.08399936
100	0x3db89fac	0.0901483
101	0x3d40f2fc	0.047106728
102	0x3e017e5a	0.12645856
103	0xbdb4e005	-0.08831791
104	0x3d9c0e85	0.07619957
105	0xbdf713b9	-0.12064309
106	0x3d6babd0	0.0575369
107	0x3e086941	0.13321401
108	0xbdee2661	-0.11628414
109	0xbe03733f	-0.12836932
110	0xbdabd1cd	-0.08389626
111	0xbd4d9cd5	-0.050198395
112	0xbd870ecd	-0.0659462
113	0xbd4860b4	-0.04892035
114	0xbd049e16	-0.032377325
115	0xbafa9e8c	-0.0019120737
116	0xbcc8994c	-0.02448716
117	0xbe2acfb8	-0.16680801
118	0xbd89a68a	-0.06721218
119	0x3dadd5b7	0.084880285
120	0xbc7b1a10	-0.015326038
121	0x3d375817	0.044761743
122	0xbda37eb3	-0.0798315
123	0xbdf79e4f	-0.12090742
124	0xbe0c21df	-0.13684796
125	0xbdf70124	-0.120607644
126	0x3d49dfc4	0.049285665
127	0x3d828f1f	0.063749544
128	0xbd8d645c	-0.06903908
129	0xbdd9dbf0	-0.10637653
130	0xbdd3181b	-0.10307332
131	0xbacc82b1	-0.0015602914
132	0x3dd701e9	0.10498411
133	0x3d28dc52	0.04122574
134	0x3d96edee	0.073696
135	0x3e0895fa	0.13338462
136	0xbd7c8e64	-0.06165923
137	0x3de29dbd	0.110652424
138	0xbdf3fe20	-0.11913705
139	0x3cadb0be	0.021202441
140	0x3dae18ac	0.085007995
141	0x3de5011b	0.111818515
142	0xbdd811f1	-0.10550297
143	0xbc965d8e	-0.018355157
144	0x3dc2159c	0.09476778
145	0xbdd9c7b9	-0.10633797
146	0x3d7f07a8	0.06226316
147	0x3d4c5c35	0.049892623
148	0x3c8867b4	0.016651012
149	0x3e00a53d	0.12563033
150	0x3cc1c2d1	0.023652466
151	0x3de8d47f	0.113686554
152	0x3ca2d4d3	0.019876873
153	0xbdb2bb08	-0.0872708
154	0x3e32cd1c	0.17461056
155	0xbddb3d6a	-0.10705073
156	0x3de2458f	0.110484235
157	0xbdbf7952	-0.09349312
158	0x3ddb818f	0.10718071
159	0xbcc991da	-0.02460568
160	0xbe097b20	-0.13425875
161	0x3e2d87a9	0.16946281
162	0xbdd6beca	-0.10485609
163	0xbe1bc215	-0.15210755
164	0x3dac00b3	0.08398571
165	0xbe2f5639	-0.17122735
166	0x3e27536a	0.16340414
167	0xbe7166ba	-0.23574343
168	0x3da19a5e	0.07890771
169	0xbdf2daf1	-0.11858166
170	0xbe5c185b	-0.21493666
171	0xbe81de9a	-0.25365144
172	0xbcb29f41	-0.021804454
173	0x3e34a2f1	0.17640282
174	0xbde02a78	-0.109456
175	0x3e279dbf	0.16368769
176	0xbca347d0	-0.019931704
177	0xbe0640b0	-0.13110614
178	0xbdae6442	-0.085152164
179	0x3ea3bb27	0.31978723
180	0x3e86b01f	0.26306245
181	0xbea71bf3	-0.3263851
182	0xbe448032	-0.19189528
183	0x3e46e5f9	0.19423665
184	0xbe914093	-0.2836958
185	0xbe1329f3	-0.14371471
186	0xbdddd92f	-0.1083244
187	0xbd5992af	-0.053118404
188	0x3e21ff8e	0.15820143
189	0xbdd827e0	-0.105544806
190	0xbbe253ff	-0.006906986
191	0x3cb4271f	0.02199131
192	0xbdb17010	-0.08663952
193	0x3e032fe6	0.1281124
194	0xbcf46495	-0.029833117
195	0xbdf785fa	-0.12086101
196	0x3b92083b	0.0044565476
197	0x3e4398e5	0.19101293
198	0xbdc35a50	-0.0953871
199	0x3e327cc3	0.17430405
200	0xbe9d2370	-0.306911
201	0x3e3dd7db	0.18539374
202	0x3e98bfa4	0.2983371
203	0x3dbaa806	0.09114079
204	0xbd83e028	-0.06439239
205	0xbe33bc49	-0.17552294
206	0x3e51d533	0.20491485
207	0x3e313040	0.17303562
208	0x3d187899	0.037224386
209	0x3c99f266	0.018792342
210	0x3d393636	0.045217715
211	0xbe74e830	-0.23916698
212	0xbe4d8523	-0.20070319
213	0x3d9c2076	0.07623379
214	0xbe504059	-0.20337047
215	0xbd8a61e5	-0.06756953
216	0x3e6c59cb	0.23081128
217	0xbe0c6dce	-0.13713762
218	0x3d5dcafc	0.05414866
219	0x3d63611b	0.05551253
220	0x3e2b2906	0.16714868
221	0x3d02960d	0.03188138
222	0xbe15e767	-0.14639054
223	0x3e413137	0.1886643
224	0x3d8a2565	0.06745414
225	0xbe68afb6	-0.22723278
226	0xbca0d732	-0.019633863
227	0xbe72c78d	-0.23708935
228	0xbdb1a137	-0.086733274
229	0x3da96ade	0.082723364
230	0xbe236134	-0.15955049
231	0xbe28b1c0	-0.16474056
232	0x3e469f14	0.19396621
233	0x3e980163	0.29688558
234	0x3e47d0e5	0.1951328
235	0x3e0c22df	0.13685177
236	0x3d6f5c14	0.058437422
237	0xbd9377c1	-0.072005756
238	0x3e676942	0.22598746
239	0x3e567258	0.20942056
240	0xbec0b188	-0.37635446
241	0x3cdf6961	0.027271928
242	0xbee7b11d	-0.45252314
243	0xbef7d4e7	-0.4840462
244	0xbf03b83a	-0.5145298
245	0xbe14b06d	-0.14520426
246	0x3de97fbc	0.114013165
247	0xbeb7d50d	-0.35904732
248	0x3e3b4eec	0.18291825
249	0xbe2bea2f	-0.16788553
250	0xbca21955	-0.01978747
251	0xbd5cf06e	-0.05394023
252	0x3d199cd8	0.037503093
253	0x3e733cc5	0.2375365
254	0x3cdf2dcb	0.027243515
255	0x3e3671b1	0.17816807
